models/epoch_model (1).tar (torch, 10010 bytes, 18 tensors)

conv_a.weight f4 [20, 1, 1]
34.224957 34.824047 -0.5460335 -0.47005653 -0.6282089 -3.274675 34.663193 -2.9239173
34.127213 -0.77501774 -3.0839484 34.452446 34.685078 34.685265 28.491758 -2.8197908
34.402756 -0.39166915 -0.38382852 34.91168
00000000: 5be6 0842 d34b 0b42 dac8 0bbf 40ab f0be
00000010: 4cd2 20bf 4694 51c0 1ca7 0a42 7621 3bc0
00000020: 4482 0842 9067 46bf 695f 45c0 4ecf 0942
00000030: 85bd 0a42 b6bd 0a42 1fef e341 7477 34c0
00000040: 6c9c 0942 dc88 c8be 2c85 c4be 8fa5 0b42

conv_a.bias f4 [20]
-6.1972227 -6.0668917 -0.2008127 -0.01129361 -0.9136393 2.984567 -5.8324766 2.7775848
-6.006643 -0.25394487 2.952021 -5.86424 -5.8426046 -6.564342 0.14583646 2.5763881
-5.2111745 -0.09228253 -0.06420645 -5.3493
00000000: a64f c6c0 fa23 c2c0 d8a1 4dbe d508 39bc
00000010: 44e4 69bf 2503 3f40 a6a3 bac0 f3c3 3140
00000020: 6b36 c0c0 1005 82be e9ed 3c40 dba7 bbc0
00000030: 9ef6 bac0 170f d2c0 2756 153e 8be3 2440
00000040: f1c1 a6c0 a0fe bcbd ac7e 83bd 772d abc0

conv_b.weight f4 [10, 20, 1]
0.15037213 0.15587482 -0.1678018 -0.07102698 -0.096810915 -0.15087862 -0.121661164 0.14779586
-0.13185664 -0.12578832 -0.21958792 0.06601379 0.16451709 -0.13059093 -0.20487589 -0.21444395
-0.14636536 -0.013251981 0.17620401 -0.19415116 -0.031901136 -0.19524889 -0.14266358 -0.1366628
0.17313692 -0.05594052 0.21084145 -0.19340801 -0.17261147 0.21465907 -0.13638988 -0.020781662
-0.101483494 -0.12513484 0.08394751 -0.24199842 0.029230217 -0.18317291 0.016141374 -0.1376835
25.807034 25.721783 0.01917657 0.08461457 0.07251815 3.7070713 25.983282 3.6861992
25.905975 0.21174525 3.7267592 26.142029 26.131123 25.675884 23.189327 4.080727
25.800972 -0.007003839 0.18180817 25.67001 -0.19408265 -0.044480585 0.1766491 0.054513123
-0.03660243 -0.11316488 0.16230717 -0.38715675 0.015822446 0.02549807 -0.3413335 -0.14902443
-0.1860568 0.0041595898 -0.14733702 -0.32546464 -0.2168085 -0.07064889 0.18967672 -0.2942622
25.754827 26.07782 -0.14342134 0.008985847 0.026916329 3.9180593 25.770546 3.6729639
25.9621 0.06367667 3.868945 25.909386 25.896856 25.888664 21.171799 3.5162952
25.938904 -0.02864468 0.09236115 25.832867 0.19227983 0.13196795 -0.010139252 0.20908044
-0.07640595 0.020088607 -0.057552185 0.02921789 -0.07772849 -0.15279119 -0.088616006 -0.1046654
-0.04267584 -0.09539993 -0.12651435 0.027002668 -0.14507964 0.21776433 -0.12553607 -0.21815279
-0.026840206 -0.2637035 -0.0698256 -0.056784924 -0.19939765 0.08278591 0.1132791 0.033997923
0.030370723 -0.009703933 -0.077033766 0.13537528 -0.11227028 -0.28584528 -0.25235736 -0.19434221
0.06637414 0.20803417 -0.03303475 0.13978048 -0.04474312 -0.048747707 -0.032496497 0.1777726
0.17823955 -0.10751482 -0.1745491 0.08439172 -0.0079907775 -0.2066121 -0.13307682 -0.0017523393
-0.052547306 0.111989215 -0.18849202 -0.12603915 -0.21120834 -0.20095612 0.17248121 0.01789927
-0.03253891 -0.16287786 -0.044005178 0.19192813 0.0517629 -0.032649077 0.014916409 -0.14024338
0.15127276 0.018310279 -0.014883755 -0.09353007 -0.050366018 0.07162112 -0.015677784 -0.09577575
-0.07177895 -0.13235356 -0.14765024 -0.05992204 -0.1869524 -0.20004296 0.18117355 -0.034617335
0.11694878 -0.058598682 -0.10908322 0.041680727 -0.15667637 0.06238876 -0.13517244 -0.13848221
-0.46773264 -0.38013783 0.23552535 -0.2990319 -0.19863865 0.10807102 -0.24408065 -0.3778276
00000000: 27fb 193e a69d 1f3e 3cd4 2bbe 9876 91bd
00000010: cd44 c6bd ed7f 1abe 7d29 f9bd cc57 173e
00000020: 6d05 07be a7ce 00be a8db 60be 3d32 873d
00000030: 2b77 283e a1b9 05be fcca 51be 3297 5bbe
00000040: cde0 15be d61e 59bc d36e 343e 90cf 46be
00000050: c4aa 02bd 53ef 47be 6716 12be 55f1 0bbe
00000060: ce4a 313e e321 65bd d2e6 573e c00c 46be
00000070: 10c1 30be 96cf 5b3e caa9 0bbe 4e3e aabc
00000080: 94d6 cfbd 5923 00be acec ab3d 6fce 77be
00000090: 3574 ef3c ae91 3bbe ea3a 843c e7fc 0cbe
000000a0: ce74 ce41 36c6 cd41 2f18 9d3c 674a ad3d
000000b0: 6584 943d a840 6d40 c3dd cf41 b0ea 6b40
000000c0: 703f cf41 bfd3 583e 3983 6e40 e022 d141
000000d0: 8a0c d141 3668 cd41 be83 b941 5195 8240
000000e0: 6468 ce41 7680 e5bb ec2b 3a3e 2e5c cd41
000000f0: 9abd 46be 4631 36bd 80e3 343e 2749 5f3d
00000100: 6eec 15bd fdc2 e7bd da33 263e 6939 c6be
00000110: 139e 813c 54e1 d03c 44c3 aebe dc99 18be
00000120: ac85 3ebe 2b4d 883b 84df 16be 4da3 a6be
00000130: 0c03 5ebe 5eb0 90bd 9d3a 423e 89a9 96be
00000140: e309 ce41 609f d041 0bdd 12be 6039 133c
00000150: a27f dc3c 7cc1 7a40 142a ce41 d711 6b40
00000160: 61b2 cf41 ea68 823d cb9c 7740 6c46 cf41
00000170: c32c cf41 fc1b cf41 d85f a941 fb0a 6140
00000180: e082 cf41 3fa8 eabc d827 bd3d b6a9 ce41
00000190: 01e5 443e 9b22 073e 1b1f 26bc 2f19 563e
000001a0: b97a 9cbd dd90 a43c d7bb 6bbd 5b5a ef3c
000001b0: 1d30 9fbd 4b75 1cbe 4f7c b5bd d05a d6bd
000001c0: ddcc 2ebd 0a61 c3bd fa8c 01be b334 dd3c
000001d0: c28f 14be 9dfd 5e3e 878c 00be 7263 5fbe
000001e0: fedf dbbc 2504 87be b900 8fbd 4f97 68bd
000001f0: e62e 4cbe a98b a93d dffe e73d 6841 0b3d
00000200: 06cc f83c 3ffd 1ebc e1c3 9dbd d19f 0a3e
00000210: f6ed e5bd 505a 92be fc34 81be a501 47be
00000220: 2aef 873d e906 553e 724f 07bd 9d22 0f3e
00000230: 9044 37bd adab 47bd 0c1b 05bd 050a 363e
00000240: 6e84 363e bb30 dcbd 00bd 32be 91d5 ac3d
00000250: c0eb 02bc 1f92 53be 4a45 08be c0ae e5ba
00000260: d83b 57bd 9a5a e53d 0d04 41be 6810 01be
00000270: 0047 58be 71c7 4dbe ea9e 303e 7da1 923c
00000280: 8547 05bd 74c9 26be c63e 34bd cf88 443e
00000290: 5605 543d 0abb 05bd f463 743c f69b 0fbe
000002a0: 3fe7 1a3e 70ff 953c feda 73bc b18c bfbd
000002b0: 994c 4ebd 18ae 923d b26e 80bc 1426 c4bd
000002c0: d800 93bd b187 07be a031 17be d070 75bd
000002d0: 7370 3fbe 10d8 4cbe 8f85 393e e8ca 0dbd
000002e0: d882 ef3d 2c05 70bd 0667 dfbd 69b9 2a3d
000002f0: c56f 20be 5b8b 7f3d a56a 0abe 48ce 0dbe
00000300: a77a efbe 6da1 c2be 8f2d 713e b61a 99be
00000310: ee67 4bbe 5754 dd3d 47f0 79be 9f72 c1be

conv_b.bias f4 [10]
-0.07151335 -0.1931369 -10.848145 -0.15621337 -11.83167 -0.14614356 0.13946714 -0.1759132
-0.13424067 0.33596557
00000000: 9775 92bd aec5 45be 0092 2dc1 66f6 1fbe
00000010: 854e 3dc1 a8a6 15be 79d0 0e3e 9722 34be
00000020: 6376 09be ae03 ac3e

fc.weight f4 [1, 10]
31.963837 -31.875587 26.482975 27.780918 27.514774 32.582485 -31.628885 -29.315964
-32.337585 -32.29634
00000000: f0b5 ff41 3401 ffc1 22dd d341 523f de41
00000010: 421e dc41 7754 0242 f507 fdc1 1887 eac1
00000020: b059 01c2 742f 01c2

fc_2.weight f4 [1, 11]
31.9474 -31.855743 32.003887 31.870996 31.867247 32.346867 -32.058228 -31.930029
-31.802422 -31.927935 -10.343893
00000000: 4694 ff41 90d8 fec1 fb03 0042 cdf7 fe41
00000010: 1ff0 fe41 3163 0142 a03b 00c2 b370 ffc1
00000020: 5c6b fec1 696c ffc1 9680 25c1

exp_avg f4 [20, 1, 1]
-1.2760884e+18 -1.2907091e+18 0.0 0.0 0.0 2.2332964e-33 -1.3207174e+18 1.03488805e-33
-1.2948357e+18 0.0 7.885115e-38 -1.2753168e+18 -1.2767833e+18 -1.2802988e+18 -1.06893455e+18 6.663508e-16
-1.2467722e+18 0.0 0.0 -1.2822975e+18
00000000: 9dac 8ddd 294c 8fdd 0000 0000 0000 0000
00000010: 0000 0000 f688 3909 0ca1 92dd 45f3 ab08
00000020: 72c1 8fdd 0000 0000 3ba7 d601 af96 8ddd
00000030: 5dc0 8ddd 4824 8edd e559 6ddd 0310 4026
00000040: 666b 8add 0000 0000 0000 0000 165d 8edd

exp_avg_sq f4 [20, 1, 1]
1.276585e+36 1.2941192e+36 0.0 0.0 0.0 7.014813e+24 1.2964672e+36 9.835599e+24
1.3037155e+36 0.0 4.1667787e+25 1.3137347e+36 1.3148131e+36 1.28937536e+36 9.402358e+35 7.406682e+26
1.2856453e+36 0.0 0.0 1.28370516e+36
00000000: 80dc 757b 013d 797b 0000 0000 0000 0000
00000010: 0000 0000 39ae b968 c5b0 797b 4e2c 0269
00000020: 2316 7b7b 0000 0000 fddd 096a 1f04 7d7b
00000030: 4a39 7d7b 1d53 787b 3415 357b a62a 196c
00000040: 359b 777b 0000 0000 0000 0000 8d3b 777b

exp_avg f4 [20]
1.0052244e+14 1.0018136e+14 0.0 6e-45 0.0 -1.365682e+13 1.01184195e+14 -1.3569585e+13
1.0088752e+14 0.0 -1.373213e+13 1.0182193e+14 1.0177504e+14 9.999054e+13 1.6624209e+09 -1.5098848e+13
1.0048802e+14 0.0 6e-45 9.997394e+13
00000000: 69d9 b656 953a b656 0000 0000 0400 0000
00000010: 0000 0000 9ebb 46d5 900d b856 a576 45d5
00000020: 6a83 b756 0000 0000 2cd4 47d5 8836 b956
00000030: b220 b956 b9e1 b556 0f2d c64e 98b7 5bd5
00000040: 61c9 b656 0000 0000 0400 0000 fed9 b556

exp_avg_sq f4 [20]
5.923498e+29 5.9481965e+29 0.0 2.8630186e+07 0.0 1.3926484e+28 5.9765235e+29 1.3230433e+28
5.983095e+29 0.0 1.3941978e+28 6.053796e+29 6.0455585e+29 5.9011764e+29 3.284924e+25 1.5462668e+28
5.946499e+29 0.0 4.598314e+06 5.8867426e+29
00000000: 893f ef70 e93e f070 0000 0000 556e da4b
00000010: 0000 0000 dffe 336e ce63 f170 d5ff 2a6e
00000020: c1a7 f170 0000 0000 2332 346e c982 f470
00000030: 9c2d f470 bc58 ee70 c760 d969 add9 476e
00000040: 5c2d f070 0000 0000 5454 8c4a 7ec3 ed70

exp_avg f4 [10, 20, 1]
0.0 0.0 0.0 0.0 0.0 0.0 0.0 0.0
0.0 0.0 0.0 0.0 0.0 0.0 0.0 0.0
0.0 0.0 0.0 0.0 0.0 0.0 0.0 6e-45
0.0 6e-45 0.0 6e-45 0.0 0.0 6e-45 0.0
0.0 0.0 6e-45 6e-45 6e-45 0.0 6e-45 0.0
-4.6783024e+17 -4.977471e+17 0.0 6e-45 0.0 -1.1121319e+13 -4.9388265e+17 -1.030531e+13
-4.825207e+17 0.0 -1.0991757e+13 -4.70925e+17 -4.8333284e+17 -4.97725e+17 -3.827132e+17 -9.505121e+12
-4.8975265e+17 0.0 -6e-45 -4.9524148e+17 0.0 0.0 0.0 6e-45
0.0 6e-45 0.0 6e-45 0.0 0.0 6e-45 0.0
0.0 0.0 6e-45 6e-45 6e-45 0.0 6e-45 6e-45
-1.2290142e+18 -1.2051724e+18 0.0 -6e-45 0.0 -2.700021e+10 -1.2359473e+18 -2.6383032e+10
-1.2213959e+18 0.0 -2.7746136e+10 -1.2031193e+18 -1.2356155e+18 -1.2359034e+18 -1.0496267e+18 -3.3896059e+10
-1.2462757e+18 0.0 -6e-45 -1.2649826e+18 0.0 0.0 0.0 0.0
0.0 0.0 0.0 0.0 0.0 0.0 0.0 0.0
0.0 0.0 0.0 0.0 0.0 0.0 0.0 0.0
6e-45 6e-45 0.0 6e-45 0.0 6e-45 6e-45 6e-45
6e-45 0.0 6e-45 6e-45 6e-45 6e-45 6e-45 6e-45
6e-45 0.0 6e-45 6e-45 0.0 0.0 0.0 0.0
0.0 0.0 0.0 0.0 0.0 0.0 0.0 0.0
0.0 0.0 0.0 0.0 0.0 0.0 0.0 0.0
0.0 0.0 0.0 0.0 0.0 0.0 0.0 0.0
0.0 0.0 0.0 0.0 0.0 0.0 0.0 0.0
0.0 0.0 0.0 0.0 6e-45 6e-45 0.0 6e-45
0.0 6e-45 6e-45 6e-45 6e-45 0.0 6e-45 6e-45
6e-45 6e-45 6e-45 6e-45 6e-45 0.0 6e-45 6e-45
00000000: 0000 0000 0000 0000 0000 0000 0000 0000
00000010: 0000 0000 0000 0000 0000 0000 0000 0000
00000020: 0000 0000 0000 0000 0000 0000 0000 0000
00000030: 0000 0000 0000 0000 0000 0000 0000 0000
00000040: 0000 0000 0000 0000 0000 0000 0000 0000
00000050: 0000 0000 0000 0000 0000 0000 0400 0000
00000060: 0000 0000 0400 0000 0000 0000 0400 0000
00000070: 0000 0000 0000 0000 0400 0000 0000 0000
00000080: 0000 0000 0000 0000 0400 0000 0400 0000
00000090: 0400 0000 0000 0000 0400 0000 0000 0000
000000a0: 24c2 cfdc 4b0b dddc 0000 0000 0400 0000
000000b0: 0000 0000 24d6 21d5 f553 dbdc 45f6 15d5
000000c0: 4148 d6dc 0000 0000 7cf3 1fd5 f921 d1dc
000000d0: 95a4 d6dc c808 dddc 74f5 a9dc 5651 0ad5
000000e0: 6e7e d9dc 0000 0000 0400 0080 70ee dbdc
000000f0: 0000 0000 0000 0000 0000 0000 0400 0000
00000100: 0000 0000 0400 0000 0000 0000 0400 0000
00000110: 0000 0000 0000 0000 0400 0000 0000 0000
00000120: 0000 0000 0000 0000 0400 0000 0400 0000
00000130: 0400 0000 0000 0000 0400 0000 0400 0000
00000140: af72 88dd 0fcd 85dd 0000 0000 0400 0080
00000150: 0000 0000 d02a c9d0 bc37 89dd a491 c4d0
00000160: 299a 87dd 0000 0000 8eb9 ced0 b592 85dd
00000170: 4e2e 89dd 7d36 89dd 5f10 69dd 9a8b fcd0
00000180: 495d 8add 0000 0000 0400 0080 f870 8cdd
00000190: 0000 0000 0000 0000 0000 0000 0000 0000
000001a0: 0000 0000 0000 0000 0000 0000 0000 0000
000001b0: 0000 0000 0000 0000 0000 0000 0000 0000
000001c0: 0000 0000 0000 0000 0000 0000 0000 0000
000001d0: 0000 0000 0000 0000 0000 0000 0000 0000
000001e0: 0400 0000 0400 0000 0000 0000 0400 0000
000001f0: 0000 0000 0400 0000 0400 0000 0400 0000
00000200: 0400 0000 0000 0000 0400 0000 0400 0000
00000210: 0400 0000 0400 0000 0400 0000 0400 0000
00000220: 0400 0000 0000 0000 0400 0000 0400 0000
00000230: 0000 0000 0000 0000 0000 0000 0000 0000
00000240: 0000 0000 0000 0000 0000 0000 0000 0000
00000250: 0000 0000 0000 0000 0000 0000 0000 0000
00000260: 0000 0000 0000 0000 0000 0000 0000 0000
00000270: 0000 0000 0000 0000 0000 0000 0000 0000
00000280: 0000 0000 0000 0000 0000 0000 0000 0000
00000290: 0000 0000 0000 0000 0000 0000 0000 0000
000002a0: 0000 0000 0000 0000 0000 0000 0000 0000
000002b0: 0000 0000 0000 0000 0000 0000 0000 0000
000002c0: 0000 0000 0000 0000 0000 0000 0000 0000
000002d0: 0400 0000 0400 0000 0000 0000 0400 0000
000002e0: 0000 0000 0400 0000 0400 0000 0400 0000
000002f0: 0400 0000 0000 0000 0400 0000 0400 0000
00000300: 0400 0000 0400 0000 0400 0000 0400 0000
00000310: 0400 0000 0000 0000 0400 0000 0400 0000

exp_avg_sq f4 [10, 20, 1]
0.0 0.0 0.0 0.0 0.0 0.0 0.0 0.0
0.0 0.0 0.0 0.0 0.0 0.0 0.0 0.0
0.0 0.0 0.0 0.0 0.0 0.0 0.0 1.5542012e-17
0.0 3.3412664e-17 0.0 4.2366252e-17 0.0 0.0 6.223297e-17 0.0
0.0 0.0 1.1687897e-16 1.0935412e-17 3.7826606e-21 0.0 1.3790497e-18 0.0
1.1797494e+36 1.2264021e+36 0.0 3.7269996e+07 0.0 5.527272e+27 1.2171767e+36 4.7905775e+27
1.1737071e+36 0.0 5.411475e+27 1.199112e+36 1.2153639e+36 1.2162044e+36 8.037536e+35 4.1531652e+27
1.194264e+36 0.0 136768.64 1.2343217e+36 0.0 0.0 0.0 2.3826323e-22
0.0 4.4954513e-07 0.0 7.052581e-07 0.0 0.0 3.463824e-07 0.0
0.0 0.0 5.986743e-06 3.2514802e-07 2.1516401e-07 0.0 2.0993674e-23 7.7737106e-08
9.2806174e+35 9.542346e+35 0.0 4.602574e+07 0.0 2.8736586e+27 9.481366e+35 2.481967e+27
9.1973684e+35 0.0 2.811128e+27 9.358355e+35 9.513864e+35 9.533974e+35 6.275786e+35 2.1419534e+27
9.276728e+35 0.0 7.671463e+06 9.5619225e+35 0.0 0.0 0.0 0.0
0.0 0.0 0.0 0.0 0.0 0.0 0.0 0.0
0.0 0.0 0.0 0.0 0.0 0.0 0.0 0.0
0.012027496 0.05677204 0.0 1.7555538e-12 0.0 3.5495398e-12 0.040804494 2.6350264e-10
0.003809399 0.0 2.9592592e-10 0.014059565 0.020644838 0.028415997 2.3362743e-09 6.523241e-13
0.019055111 0.0 2.6787969e-13 0.04915943 0.0 0.0 0.0 0.0
0.0 0.0 0.0 0.0 0.0 0.0 0.0 0.0
0.0 0.0 0.0 0.0 0.0 0.0 0.0 0.0
0.0 0.0 0.0 0.0 0.0 0.0 0.0 0.0
0.0 0.0 0.0 0.0 0.0 0.0 0.0 0.0
0.0 0.0 0.0 0.0 6.744555e+21 7.3483366e+21 0.0 9.115204e-20
0.0 339.71335 7.151802e+21 261.69888 6.680007e+21 0.0 334.5541 6.899313e+21
7.1256043e+21 7.1505875e+21 2.0623805e+21 193.65065 6.933137e+21 0.0 1.127123e-20 7.377354e+21
00000000: 0000 0000 0000 0000 0000 0000 0000 0000
00000010: 0000 0000 0000 0000 0000 0000 0000 0000
00000020: 0000 0000 0000 0000 0000 0000 0000 0000
00000030: 0000 0000 0000 0000 0000 0000 0000 0000
00000040: 0000 0000 0000 0000 0000 0000 0000 0000
00000050: 0000 0000 0000 0000 0000 0000 8a59 8f23
00000060: 0000 0000 b616 1a24 0000 0000 3e61 4324
00000070: 0000 0000 0000 0000 dd7f 8f24 0000 0000
00000080: 0000 0000 0000 0000 95c0 0625 06b9 4923
00000090: a6e7 8e1d 0000 0000 0683 cb21 0000 0000
000000a0: 2336 637b 4b32 6c7b 0000 0000 7b2c 0e4c
000000b0: 0000 0000 6be0 8e6d 726b 6a7b c4aa 776d
000000c0: 3a0c 627b 0000 0000 23e2 8b6d c9f0 667b
000000d0: 1112 6a7b 823b 6a7b 1dcc 1a7b afb6 566d
000000e0: c301 667b 0000 0000 2990 0548 c2b8 6d7b
000000f0: 0000 0000 0000 0000 0000 0000 7305 901b
00000100: 0000 0000 0359 f134 0000 0000 f850 3d35
00000110: 0000 0000 0000 0000 6ff6 b934 0000 0000
00000120: 0000 0000 0000 0000 bbe1 c836 0190 ae34
00000130: d507 6734 0000 0000 d209 cb19 6df0 a633
00000140: fabc 327b 66c7 377b 0000 0000 0393 2f4c
00000150: 0000 0000 8e90 146d be9a 367b 8f50 006d
00000160: 8722 317b 0000 0000 f854 116d 413c 347b
00000170: f93a 377b 1f9e 377b 07bc f17a 0979 dd6c
00000180: cda9 327b 0000 0000 4e1d ea4a eb27 387b
00000190: 0000 0000 0000 0000 0000 0000 0000 0000
000001a0: 0000 0000 0000 0000 0000 0000 0000 0000
000001b0: 0000 0000 0000 0000 0000 0000 0000 0000
000001c0: 0000 0000 0000 0000 0000 0000 0000 0000
000001d0: 0000 0000 0000 0000 0000 0000 0000 0000
000001e0: f90e 453c cc89 683d 0000 0000 7e12 f72b
000001f0: 0000 0000 d3c6 792c 9d22 273d b3dc 902f
00000200: 1ca7 793b 0000 0000 dfaf a22f 175a 663c
00000210: 5d1f a93c aac8 e83c 2c8c 2031 e89c 372b
00000220: 7719 9c3c 0000 0000 88cd 962a 665b 493d
00000230: 0000 0000 0000 0000 0000 0000 0000 0000
00000240: 0000 0000 0000 0000 0000 0000 0000 0000
00000250: 0000 0000 0000 0000 0000 0000 0000 0000
00000260: 0000 0000 0000 0000 0000 0000 0000 0000
00000270: 0000 0000 0000 0000 0000 0000 0000 0000
00000280: 0000 0000 0000 0000 0000 0000 0000 0000
00000290: 0000 0000 0000 0000 0000 0000 0000 0000
000002a0: 0000 0000 0000 0000 0000 0000 0000 0000
000002b0: 0000 0000 0000 0000 0000 0000 0000 0000
000002c0: 0000 0000 0000 0000 0000 0000 0000 0000
000002d0: c0cf b663 542d c763 0000 0000 073a d71f
000002e0: 0000 0000 4fdb a943 98d9 c163 75d9 8243
000002f0: dc0f b563 0000 0000 ed46 a743 9a01 bb63
00000300: d023 c163 2bd1 c163 8f9a df62 91a6 4143
00000310: 4dec bb63 0000 0000 53e8 541e adf6 c763

exp_avg f4 [10]
0.0 6e-45 1.0253556e+07 6e-45 3.8303944e+07 0.0 -6e-45 0.0
0.0 -6e-45
00000000: 0000 0000 0400 0000 f474 1c4b 0400 0000
00000010: 321e 124c 0000 0000 0400 0080 0000 0000
00000020: 0000 0000 0400 0080

exp_avg_sq f4 [10]
0.0 9.307109e-17 1.7975728e+15 1.7139912e-06 1.3860372e+15 0.0 2.317578e-18 0.0
0.0 24.063478
00000000: 0000 0000 799b d624 415c cc58 4a0c e635
00000010: fe92 9d58 0000 0000 d001 2b22 0000 0000
00000020: 0000 0000 0182 c041

exp_avg f4 [1, 10]
-6.3070784e+17 6.7017955e+17 -2.7574042e+18 -4.0037293e+17 -6.460489e+18 -1.2932008e+19 5.720022e+17 5.3537774e+17
6.5650705e+17 6.22402e+17
00000000: 970b 0cdd 4ccf 145d 1211 19de 22cd b1dc
00000010: 8950 b3de b977 33df 1f05 fe5c 67c1 ed5c
00000020: 1bc6 115d 7533 0a5d

exp_avg_sq f4 [1, 10]
3.8487805e+35 3.825158e+35 3.199983e+37 8.853294e+35 2.3990856e+37 1.4846067e+38 3.998202e+35 4.027622e+35
3.8972896e+35 3.9256453e+35
00000000: e83f 947a f856 937a 8b97 c07d 1c82 2a7b
00000010: c463 907d f860 df7e 5101 9a7a 6b23 9b7a
00000020: 3e1e 967a da35 977a

exp_avg f4 [1, 11]
-6.3429884e+17 6.486223e+17 -4.8960466e+17 -5.316668e+17 -5.5752187e+17 -6.533098e+17 6.546955e+17 5.3749117e+17
6.3628786e+17 6.599675e+17 0.00021052084
00000000: b7d7 0cdd e905 105d 9b6d d9dc 841b ecdc
00000010: e696 f7dc 5d10 11dd 215f 115d acb1 ee5c
00000020: c748 0d5d cf8a 125d 42bf 5c39

exp_avg_sq f4 [1, 11]
3.846474e+35 3.8303743e+35 2.6351614e+35 2.9008685e+35 2.8935567e+35 4.012108e+35 3.7653133e+35 3.2431407e+35
3.9502988e+35 3.945044e+35 2.2169638e-07
00000000: 2929 947a 688a 937a 6501 4b7a 8b79 5f7a
00000010: 58e9 5e7a 708a 9a7a db08 917a acd7 797a
00000020: f428 987a 23f5 977a 700b 6e34
