models/model_dict (1).pt (torch, 3663 bytes, 6 tensors)

conv_a.weight f4 [20, 1, 1]
000000 5b e6 08 42 d3 4b 0b 42 da c8 0b bf 40 ab f0 be
       34.224957 34.824047 -0.5460335 -0.47005653
000010 4c d2 20 bf 46 94 51 c0 1c a7 0a 42 76 21 3b c0
       -0.6282089 -3.274675 34.663193 -2.9239173
000020 44 82 08 42 90 67 46 bf 69 5f 45 c0 4e cf 09 42
       34.127213 -0.77501774 -3.0839484 34.452446
000030 85 bd 0a 42 b6 bd 0a 42 1f ef e3 41 74 77 34 c0
       34.685078 34.685265 28.491758 -2.8197908
000040 6c 9c 09 42 dc 88 c8 be 2c 85 c4 be 8f a5 0b 42
       34.402756 -0.39166915 -0.38382852 34.91168

conv_a.bias f4 [20]
000000 a6 4f c6 c0 fa 23 c2 c0 d8 a1 4d be d5 08 39 bc
       -6.1972227 -6.0668917 -0.2008127 -0.01129361
000010 44 e4 69 bf 25 03 3f 40 a6 a3 ba c0 f3 c3 31 40
       -0.9136393 2.984567 -5.8324766 2.7775848
000020 6b 36 c0 c0 10 05 82 be e9 ed 3c 40 db a7 bb c0
       -6.006643 -0.25394487 2.952021 -5.86424
000030 9e f6 ba c0 17 0f d2 c0 27 56 15 3e 8b e3 24 40
       -5.8426046 -6.564342 0.14583646 2.5763881
000040 f1 c1 a6 c0 a0 fe bc bd ac 7e 83 bd 77 2d ab c0
       -5.2111745 -0.09228253 -0.06420645 -5.3493

conv_b.weight f4 [10, 20, 1]
000000 27 fb 19 3e a6 9d 1f 3e 3c d4 2b be 98 76 91 bd
       0.15037213 0.15587482 -0.1678018 -0.07102698
000010 cd 44 c6 bd ed 7f 1a be 7d 29 f9 bd cc 57 17 3e
       -0.096810915 -0.15087862 -0.121661164 0.14779586
000020 6d 05 07 be a7 ce 00 be a8 db 60 be 3d 32 87 3d
       -0.13185664 -0.12578832 -0.21958792 0.06601379
000030 2b 77 28 3e a1 b9 05 be fc ca 51 be 32 97 5b be
       0.16451709 -0.13059093 -0.20487589 -0.21444395
000040 cd e0 15 be d6 1e 59 bc d3 6e 34 3e 90 cf 46 be
       -0.14636536 -0.013251981 0.17620401 -0.19415116
000050 c4 aa 02 bd 53 ef 47 be 67 16 12 be 55 f1 0b be
       -0.031901136 -0.19524889 -0.14266358 -0.1366628
000060 ce 4a 31 3e e3 21 65 bd d2 e6 57 3e c0 0c 46 be
       0.17313692 -0.05594052 0.21084145 -0.19340801
000070 10 c1 30 be 96 cf 5b 3e ca a9 0b be 4e 3e aa bc
       -0.17261147 0.21465907 -0.13638988 -0.020781662
000080 94 d6 cf bd 59 23 00 be ac ec ab 3d 6f ce 77 be
       -0.101483494 -0.12513484 0.08394751 -0.24199842
000090 35 74 ef 3c ae 91 3b be ea 3a 84 3c e7 fc 0c be
       0.029230217 -0.18317291 0.016141374 -0.1376835
0000a0 ce 74 ce 41 36 c6 cd 41 2f 18 9d 3c 67 4a ad 3d
       25.807034 25.721783 0.01917657 0.08461457
0000b0 65 84 94 3d a8 40 6d 40 c3 dd cf 41 b0 ea 6b 40
       0.07251815 3.7070713 25.983282 3.6861992
0000c0 70 3f cf 41 bf d3 58 3e 39 83 6e 40 e0 22 d1 41
       25.905975 0.21174525 3.7267592 26.142029
0000d0 8a 0c d1 41 36 68 cd 41 be 83 b9 41 51 95 82 40
       26.131123 25.675884 23.189327 4.080727
0000e0 64 68 ce 41 76 80 e5 bb ec 2b 3a 3e 2e 5c cd 41
       25.800972 -0.007003839 0.18180817 25.67001
0000f0 9a bd 46 be 46 31 36 bd 80 e3 34 3e 27 49 5f 3d
       -0.19408265 -0.044480585 0.1766491 0.054513123
000100 6e ec 15 bd fd c2 e7 bd da 33 26 3e 69 39 c6 be
       -0.03660243 -0.11316488 0.16230717 -0.38715675
000110 13 9e 81 3c 54 e1 d0 3c 44 c3 ae be dc 99 18 be
       0.015822446 0.02549807 -0.3413335 -0.14902443
000120 ac 85 3e be 2b 4d 88 3b 84 df 16 be 4d a3 a6 be
       -0.1860568 0.0041595898 -0.14733702 -0.32546464
000130 0c 03 5e be 5e b0 90 bd 9d 3a 42 3e 89 a9 96 be
       -0.2168085 -0.07064889 0.18967672 -0.2942622
000140 e3 09 ce 41 60 9f d0 41 0b dd 12 be 60 39 13 3c
       25.754827 26.07782 -0.14342134 0.008985847
000150 a2 7f dc 3c 7c c1 7a 40 14 2a ce 41 d7 11 6b 40
       0.026916329 3.9180593 25.770546 3.6729639
000160 61 b2 cf 41 ea 68 82 3d cb 9c 77 40 6c 46 cf 41
       25.9621 0.06367667 3.868945 25.909386
000170 c3 2c cf 41 fc 1b cf 41 d8 5f a9 41 fb 0a 61 40
       25.896856 25.888664 21.171799 3.5162952
000180 e0 82 cf 41 3f a8 ea bc d8 27 bd 3d b6 a9 ce 41
       25.938904 -0.02864468 0.09236115 25.832867
000190 01 e5 44 3e 9b 22 07 3e 1b 1f 26 bc 2f 19 56 3e
       0.19227983 0.13196795 -0.010139252 0.20908044
0001a0 b9 7a 9c bd dd 90 a4 3c d7 bb 6b bd 5b 5a ef 3c
       -0.07640595 0.020088607 -0.057552185 0.02921789
0001b0 1d 30 9f bd 4b 75 1c be 4f 7c b5 bd d0 5a d6 bd
       -0.07772849 -0.15279119 -0.088616006 -0.1046654
0001c0 dd cc 2e bd 0a 61 c3 bd fa 8c 01 be b3 34 dd 3c
       -0.04267584 -0.09539993 -0.12651435 0.027002668
0001d0 c2 8f 14 be 9d fd 5e 3e 87 8c 00 be 72 63 5f be
       -0.14507964 0.21776433 -0.12553607 -0.21815279
0001e0 fe df db bc 25 04 87 be b9 00 8f bd 4f 97 68 bd
       -0.026840206 -0.2637035 -0.0698256 -0.056784924
0001f0 e6 2e 4c be a9 8b a9 3d df fe e7 3d 68 41 0b 3d
       -0.19939765 0.08278591 0.1132791 0.033997923
000200 06 cc f8 3c 3f fd 1e bc e1 c3 9d bd d1 9f 0a 3e
       0.030370723 -0.009703933 -0.077033766 0.13537528
000210 f6 ed e5 bd 50 5a 92 be fc 34 81 be a5 01 47 be
       -0.11227028 -0.28584528 -0.25235736 -0.19434221
000220 2a ef 87 3d e9 06 55 3e 72 4f 07 bd 9d 22 0f 3e
       0.06637414 0.20803417 -0.03303475 0.13978048
000230 90 44 37 bd ad ab 47 bd 0c 1b 05 bd 05 0a 36 3e
       -0.04474312 -0.048747707 -0.032496497 0.1777726
000240 6e 84 36 3e bb 30 dc bd 00 bd 32 be 91 d5 ac 3d
       0.17823955 -0.10751482 -0.1745491 0.08439172
000250 c0 eb 02 bc 1f 92 53 be 4a 45 08 be c0 ae e5 ba
       -0.0079907775 -0.2066121 -0.13307682 -0.0017523393
000260 d8 3b 57 bd 9a 5a e5 3d 0d 04 41 be 68 10 01 be
       -0.052547306 0.111989215 -0.18849202 -0.12603915
000270 00 47 58 be 71 c7 4d be ea 9e 30 3e 7d a1 92 3c
       -0.21120834 -0.20095612 0.17248121 0.01789927
000280 85 47 05 bd 74 c9 26 be c6 3e 34 bd cf 88 44 3e
       -0.03253891 -0.16287786 -0.044005178 0.19192813
000290 56 05 54 3d 0a bb 05 bd f4 63 74 3c f6 9b 0f be
       0.0517629 -0.032649077 0.014916409 -0.14024338
0002a0 3f e7 1a 3e 70 ff 95 3c fe da 73 bc b1 8c bf bd
       0.15127276 0.018310279 -0.014883755 -0.09353007
0002b0 99 4c 4e bd 18 ae 92 3d b2 6e 80 bc 14 26 c4 bd
       -0.050366018 0.07162112 -0.015677784 -0.09577575
0002c0 d8 00 93 bd b1 87 07 be a0 31 17 be d0 70 75 bd
       -0.07177895 -0.13235356 -0.14765024 -0.05992204
0002d0 73 70 3f be 10 d8 4c be 8f 85 39 3e e8 ca 0d bd
       -0.1869524 -0.20004296 0.18117355 -0.034617335
0002e0 d8 82 ef 3d 2c 05 70 bd 06 67 df bd 69 b9 2a 3d
       0.11694878 -0.058598682 -0.10908322 0.041680727
0002f0 c5 6f 20 be 5b 8b 7f 3d a5 6a 0a be 48 ce 0d be
       -0.15667637 0.06238876 -0.13517244 -0.13848221
000300 a7 7a ef be 6d a1 c2 be 8f 2d 71 3e b6 1a 99 be
       -0.46773264 -0.38013783 0.23552535 -0.2990319
000310 ee 67 4b be 57 54 dd 3d 47 f0 79 be 9f 72 c1 be
       -0.19863865 0.10807102 -0.24408065 -0.3778276

conv_b.bias f4 [10]
000000 97 75 92 bd ae c5 45 be 00 92 2d c1 66 f6 1f be
       -0.07151335 -0.1931369 -10.848145 -0.15621337
000010 85 4e 3d c1 a8 a6 15 be 79 d0 0e 3e 97 22 34 be
       -11.83167 -0.14614356 0.13946714 -0.1759132
000020 63 76 09 be ae 03 ac 3e
       -0.13424067 0.33596557

fc.weight f4 [1, 10]
000000 f0 b5 ff 41 34 01 ff c1 22 dd d3 41 52 3f de 41
       31.963837 -31.875587 26.482975 27.780918
000010 42 1e dc 41 77 54 02 42 f5 07 fd c1 18 87 ea c1
       27.514774 32.582485 -31.628885 -29.315964
000020 b0 59 01 c2 74 2f 01 c2
       -32.337585 -32.29634

fc_2.weight f4 [1, 11]
000000 46 94 ff 41 90 d8 fe c1 fb 03 00 42 cd f7 fe 41
       31.9474 -31.855743 32.003887 31.870996
000010 1f f0 fe 41 31 63 01 42 a0 3b 00 c2 b3 70 ff c1
       31.867247 32.346867 -32.058228 -31.930029
000020 5c 6b fe c1 69 6c ff c1 96 80 25 c1
       -31.802422 -31.927935 -10.343893
