models/model_dict.pt (torch, 4183 bytes, 6 tensors)

conv_a.weight f4 [20, 10, 1]
00000000: 5ffc f73d 36c0 a73d cb15 353e 63c6 593e
00000010: afab e0bd 14d6 1c3e 7611 36be cac6 a33d
00000020: 2858 2abe 24d1 6d3c cdb3 d5bd 2bd1 cabd
00000030: 8719 dfbe 8cb4 33bf 8595 0b3e 81a5 d8be
00000040: 8372 723c 74fa 76bd 515f 0ebd bf8a 923e
00000050: 9702 eebe 6958 0dbe 1d39 f23d dff2 cb3d
00000060: c9fa 75bd f2c2 333e 4df9 b73c 5001 d03d
00000070: f250 b53d 84d7 e23d dad2 943e 59d2 693e
00000080: 71cd 673d a512 673e d27c 953e d4ea 6d3e
00000090: 8dc8 a63e 31f3 d43e c930 0ebd c9e4 d1be
000000a0: 7c05 bd3b c825 903e df5e 353d c8ad ef3d
000000b0: 2e2d 8c3e ac56 2d3d 026f 8a3e aef5 39be
000000c0: 4aa8 f73d 5ef3 77be 6cbc 8c3b be69 2c3d
000000d0: 7b99 81be 7ede 49be 80b2 5d3e ce7c 2f3e
000000e0: e8a4 4d3e b570 f73d 5f9e 12be c11c c2bd
000000f0: 2114 cdbd 620f 24bf e3cf dabe f5b6 38bf
00000100: 7411 f2bd a74f c63d 1124 883e 37bb 2cbe
00000110: 1ba5 35bd 5b6b 12be 7d97 0a3f a838 ce3d
00000120: 7ac0 1dbe 89d5 bc3e dc94 3b3e 1a04 bd3e
00000130: 2890 173f 2a66 cd3e aa00 c23e 874d 953e
00000140: d366 3a3d 2f88 b2be e567 08be 5075 613d
00000150: 0878 c9bd 05e2 e53d 6dab 2c3c 79ff 98bd
00000160: 08ae 0f3e 04d8 8fbd 6944 463d d98a bf3d
00000170: 14fd ca3e 0910 443e d100 913e ddf2 813d
00000180: f4d3 e9bc c776 e43d 34e9 9b3e 0108 a1bd
00000190: ed5a b0be 87ee 0fbe 2b5b 2bbe 5b6b 43be
000001a0: 70a9 64be b18f efbd d528 103e 667b 7cbb
000001b0: 3e9c dcbe 3338 91bd 73b5 61be 434c ac3e
000001c0: d59b babd 5dfb bc3e 041d be3e c536 9d3e
000001d0: c77d 703e 53d7 903e 709f 313e b256 643d
000001e0: 2040 78be bb3e febc 78c9 8f3e 0abd 7fbd
000001f0: 7784 85be 3f07 ea3d 8863 203e cb9a aa3e
00000200: dafa a53d bf7c 133d 5fea d33d c3d4 c83e
00000210: 77ea 19bc ffeb 083f 33bf 043e 7c8a 823d
00000220: a5d0 16be d310 843d d992 c93e 874d ce3e
00000230: 8698 41be 1e4c d23b 6322 d43e 3d49 423e
00000240: d4b1 cebd 0b15 9bbd 9d1c 793e 41a7 b43e
00000250: 6541 bb3e d4e0 0fbe 446d f23e cef1 d83e
00000260: e1de d23d d0fe 253e 5900 0d3f d174 883e
00000270: 9d31 b1bd e430 eb3e ce38 a83d 079d 623e
00000280: 9c52 e83c df2d 7a3e be66 7a3e c53d 353e
00000290: 47e9 52bb 1025 92bd 8f5f 2d3d a0a5 a3be
000002a0: 3c73 053e cb36 9ebd 6aa4 ae3e 4018 e93d
000002b0: 63c5 973d fdb4 8b3d eccf b7bd fb4d f13e
000002c0: 46cf ec3e 3730 663e 31b7 19bd c08d fa3e
000002d0: bc5f 403e 22cc 68be 70b1 ec3e 07fb 50be
000002e0: 4555 233e fd99 753e 86c6 a3be 459b 63be
000002f0: 52c7 063e 46e3 263e c650 823e 80d8 0d3e
00000300: 1eb3 883e 0e5e c03d 6338 bf3e 1c3d 873b
00000310: 5ecf 9e3c 98e1 23be b798 133e 5a1c eebd
0.12108683 0.08190958 0.17684095 0.21267085 -0.10970246 0.1531604 -0.17780098 0.079969004
-0.16635191 0.014515195 -0.10434685 -0.09903177 -0.43574163 -0.7019737 0.13631256 -0.4231377
0.0147978095 -0.060297444 -0.03475887 0.2862148 -0.4648635 -0.13803257 0.118273 0.09958433
-0.06005362 0.17554834 0.022457743 0.101565 0.0885333 0.110762626 0.29067117 0.22834148
0.05659241 0.22565706 0.29196793 0.23234111 0.32574883 0.4159179 -0.034714494 -0.40994862
0.005768476 0.28153825 0.04427993 0.11703068 0.2737822 0.042318985 0.27037817 -0.18160126
0.120926455 -0.24213931 0.0042949226 0.04209303 -0.2531241 -0.1971378 0.21650124 0.17137453
0.20082438 0.12082044 -0.14318226 -0.094781406 -0.10013605 -0.6408597 -0.4273673 -0.7215417
-0.11819735 0.09683161 0.26590016 -0.16868292 -0.04434691 -0.14298765 0.541374 0.100694
-0.15405455 0.36881664 0.18318504 0.36917192 0.5920434 0.40117007 0.37891132 0.2916071
0.045508217 -0.34869525 -0.13320883 0.05504352 -0.09837347 0.112247504 0.010538918 -0.074706025
0.14031231 -0.070236236 0.048405085 0.09352655 0.39646208 0.19146742 0.28320935 0.063451506
-0.02854345 0.111554675 0.30451357 -0.07862855 -0.3444437 -0.14055835 -0.16733997 -0.19083922
-0.2233026 -0.11697329 0.14078076 -0.00385257 -0.43087953 -0.07090797 -0.22041874 0.33651933
-0.09111754 0.36910525 0.37131512 0.30705848 0.2348548 0.2828928 0.17345977 0.05574674
-0.24243212 -0.031035772 0.28083396 -0.06243614 -0.26077625 0.11427163 0.15662968 0.33321223
0.08104487 0.03600764 0.10347437 0.39224824 -0.00939428 0.534851 0.12963562 0.0637407
-0.14728029 0.064485215 0.39369848 0.40293524 -0.1890584 0.0064177653 0.41432485 0.1897325
-0.10092512 -0.07572373 0.24327321 0.35283855 0.3657333 -0.14050609 0.47348988 0.42371982
0.10296417 0.16210485 0.55078655 0.26651624 -0.08652041 0.45935738 0.0821396 0.22130214
0.028359704 0.24431561 0.24453256 0.17699344 -0.00321825 -0.07135975 0.04232746 -0.319623
0.1303224 -0.07725295 0.34109813 0.113815784 0.074106954 0.0682163 -0.08975205 0.47129807
0.46251887 0.2247933 -0.03752822 0.48936272 0.1878652 -0.2273412 0.46229124 -0.2040826
0.15950496 0.23984523 -0.319874 -0.222272 0.13161972 0.16297635 0.2545225 0.1385212
0.26699156 0.093929395 0.37347707 0.004127158 0.01938599 -0.16004026 0.14413725 -0.116265014

conv_a.bias f4 [20]
00000000: 038c 1e3f 7e7a 9d3e ec91 b83e ee22 d83e
00000010: 5af5 a53d f6a4 c3be bf83 963e 5e2a 53be
00000020: 993c 95be e1b9 843e 72ee 97be eee0 88bd
00000030: 3694 c23d 8cb7 0f3f 945c acbf e189 aa3d
00000040: 8c8d 023e 824c 3e3f e61d b63d 95e2 5e3e
0.6193239 0.30757517 0.3604883 0.4221415 0.08103438 -0.38211793 0.2939739 -0.2062163
-0.29147795 0.25923064 -0.29674107 -0.06683527 0.09500925 0.56139445 -1.3465753 0.083270796
0.12749308 0.7433549 0.088924214 0.21766122

conv_b.weight f4 [10, 20, 1]
00000000: 4782 67bd 0e23 f6bd 2e07 09be 0645 04bf
00000010: 3473 96be b61c 23be e7cf b5bd 7b4d c5be
00000020: 7ef7 163e 041f cfbd 8d06 09be 87ff 22bd
00000030: 6a4b 7fbe a8e5 00be ffad 7cbe 778f d53d
00000040: c054 27bf 594d 0bbe e23a dcbe 02ea 943d
00000050: 3aef cbbd cfa2 38be 8515 cb3d 9ec1 333e
00000060: ba1a b4bd ad73 4d3e 7e0a 17be 449e 05bc
00000070: 54e7 353c 1d20 9dbd 1733 f73b 522c aebe
00000080: 4c4e 24bd 49ab 84be b009 02be a8b5 2e3d
00000090: 495b 15be 3cb3 78be 0f47 21be 29c6 a7be
000000a0: f14b 95be 87ff 843d fd2e 583e 5a98 0bbe
000000b0: 0b1b cc3c 5eaf a3be 5b08 943e 8549 02bf
000000c0: f576 e1bd 2c37 f5be 5fcc 1e3d 6f19 30be
000000d0: e776 e5be 8eaa 30be d1ce 46be ad38 e3be
000000e0: cecb b1be 305e f1bd 88cb 02bf 27d3 4bbd
000000f0: bb35 bdbd 1008 cfbc 6699 cfbd 6013 d33d
00000100: a4ac c3bc f941 3cbe 32dc fdbc c3ac 103b
00000110: 774d f43c f033 1ebe c9aa 183e 6abb d1bd
00000120: f841 c0bd ab0c 843d 35b6 a23d 4a17 1dbd
00000130: 6e02 0c3e 9f5f 19be 401b c03d 7e4f d6bd
00000140: 13ac ecbd 90a8 05be 4acf 023e d958 87bf
00000150: b8b2 83bd 0e3b 87bd 5f45 14bd 6408 1cbe
00000160: 48a9 343c dc17 26be 070b 04be b930 95be
00000170: fe56 31be 8eb7 a6bc df63 c93d 1627 1a3e
00000180: 12d5 d8be 8363 5cbe 7258 153e d96c 853d
00000190: 88f8 82be 908a 7d3e 9380 3ebe 8df1 f73b
000001a0: 605a 97be 9e4b 9fbd 86cc 9f3d 40ce 8d3d
000001b0: 3f3d 843d 1294 42be c37b 03be c68e 02bb
000001c0: a36c 023d cbc7 823c 290a 95bc 33d0 dc3c
000001d0: 4c05 303e 5e74 b6be 3ffe 3b3e 475d 54be
000001e0: cfc5 0a3e be3f 89be 7a32 ad3d 215f 98bf
000001f0: f725 b43d b9b5 ba3d 29e6 adbe 288e 4bbd
00000200: 53fb 323e bf4a d43d bd77 7cbd 603b 86be
00000210: e1ec 9cbe c95d 72bd 07cb 13be 5f93 51be
00000220: 1d46 883e a2e1 73be 941a b3bd 094d 3ebe
00000230: 8285 3cbe d3de 27be 0af2 ffbd cf1d 203d
00000240: 5f3f f5bc e6ec a43c 68cc 64be 5503 e03d
00000250: f6dd d3bd 5027 5dbc 248a c93d bdfa d7bd
00000260: dbdb 36be f455 23bd 016e 723c 9954 10bd
00000270: 249a 223e 2602 15be a614 b0bd 8258 3cbe
00000280: 7d40 7cbd 2120 e43c a2ef 27be 721e bb3d
00000290: bf45 e43d f2c8 0cbe b7a1 3e3d baa5 d5bd
000002a0: f856 173d c9ed fabc 9ce2 87be 2db7 49be
000002b0: e68c 7b3d 3e40 6fbe bd46 b43c 1ee9 343a
000002c0: 261d ec3d da12 4cbe 83d4 21be 7742 56bd
000002d0: a4aa 6b3c c285 05bf 6ab9 a2bc e4a0 d8be
000002e0: cf38 0fbe 21fa 7a3c e66c 43be d771 91bd
000002f0: da1d 133e f982 42bd 61d5 17be 2f47 343d
00000300: 0e31 4cbd 58b0 06be ae35 f8bd df0a c8bd
00000310: a7f0 fbbd 17df 14be 64f8 703e 5f2f e3bd
-0.056520727 -0.12018405 -0.13381645 -0.5166782 -0.29384768 -0.15928921 -0.08877545 -0.38535675
0.14742848 -0.10113338 -0.13381405 -0.03979447 -0.24931112 -0.12587607 -0.24675749 0.10427754
-0.65363693 -0.13603725 -0.43013674 0.07271196 -0.09957738 -0.18030857 0.09916214 0.17554328
-0.0879416 0.20063658 -0.14750096 -0.008155409 0.011102516 -0.07672141 0.007543932 -0.3401819
-0.040113732 -0.2591193 -0.12699008 0.04265371 -0.14585604 -0.24287122 -0.15749763 -0.32768372
-0.291595 0.064940505 0.21111675 -0.13632336 0.024915239 -0.31969732 0.28912625 -0.5089343
-0.110090174 -0.47893655 0.038769122 -0.17197202 -0.44817278 -0.17252561 -0.19414832 -0.44379178
-0.34725803 -0.11785543 -0.51091814 -0.049761917 -0.09238764 -0.0252724 -0.1013668 0.1030643
-0.023886032 -0.18384542 -0.030988786 0.002207563 0.029822094 -0.154495 0.149089 -0.102408245
-0.093875825 0.06447729 0.079449095 -0.03835229 0.13672802 -0.14977883 0.093801975 -0.10464381
-0.11556258 -0.13052583 0.12774387 -1.0573989 -0.06430572 -0.06603061 -0.03619897 -0.15237576
0.011026688 -0.16220039 -0.12894832 -0.29138735 -0.17318341 -0.020351198 0.09833502 0.15053973
-0.4235006 -0.21522336 0.1458452 0.06514902 -0.2558024 0.24759889 -0.18603735 0.007566637
-0.29561138 -0.07778095 0.078026816 0.06924105 0.06456994 -0.19001797 -0.1284018 -0.0019921525
0.031841885 0.01596441 -0.018193321 0.026954746 0.1718952 -0.35635656 0.18358706 -0.20738707
0.1355202 -0.26806444 0.08456893 -1.1904031 0.08796304 0.09116692 -0.3396466 -0.049696118
0.17478685 0.10365819 -0.06163763 -0.26217175 -0.30649474 -0.05917147 -0.14432918 -0.20466374
0.26615992 -0.23816541 -0.08745304 -0.18584074 -0.18410304 -0.16393594 -0.12497337 0.039090928
-0.029937444 0.020132493 -0.223436 0.109381355 -0.1034507 -0.013498142 0.09840801 -0.105458714
-0.17857306 -0.039876893 0.014796735 -0.03523693 0.15879112 -0.14551601 -0.085976884 -0.18393138
-0.06158494 0.027847352 -0.16400006 0.09136666 0.111461155 -0.1374853 0.046540942 -0.104320005
0.036948174 -0.030630963 -0.26540077 -0.19698782 0.061413668 -0.2336435 0.022006387 0.0006901192
0.11528997 -0.19929066 -0.15803723 -0.05230948 0.014383946 -0.52157223 -0.019863803 -0.4231025
-0.13986515 0.015318424 -0.1908451 -0.07101791 0.14366856 -0.047488187 -0.14827491 0.0440132
-0.04985147 -0.13153207 -0.121196136 -0.097676985 -0.1230176 -0.14538227 0.23532254 -0.1109302

conv_b.bias f4 [10]
00000000: abd4 d13e e7d3 cb3e 2637 083f fb87 7ebe
00000010: 0585 2c3e 8d26 b63e 48b3 c33e eacf b9be
00000020: a4b2 82be a8be c13e
0.40982565 0.39810106 0.5320915 -0.2485656 0.16847618 0.35576287 0.38222718 -0.36291438
-0.25526917 0.37840772

fc.weight f4 [10, 10]
00000000: f567 e5be 190e a43d 20af f3bc 65b9 223c
00000010: 5835 8fbe 301e dc3c 5dfb 0c3e e557 fbbd
00000020: a2b9 4ebe 614c 14bd 8e40 b9be f26f 97be
00000030: 5d84 03bc d517 d73c e666 f2bd 7c38 81bd
00000040: 586a 08be 42b6 ecbd 8aca 71be 5301 2a3d
00000050: a2c8 08bf 812c 21bf 3d61 f2be 3991 7bbc
00000060: 1466 5cbe 600d 463d 52af 85be 28a7 f9be
00000070: 97ec bcbc 38cb 41be af8e 1ebf a856 64bf
00000080: 4e3d 08bf 3982 e33c 1105 b1be b8bb de3d
00000090: ce89 acbc 121a 9e3d ce29 2abd 2147 14bd
000000a0: ba39 12be f9b4 2abf 85fe a5be 85ef cbbe
000000b0: c6e2 0cbe 34a9 e43d 18b8 5ebe 72a7 12be
000000c0: 9e5e f5bb c566 febe 46f9 90bd 6a6c 273e
000000d0: ff55 80bd abfd f93b 8c8e 01bd 8015 f03c
000000e0: 1ec5 8dbe 0ad6 96bd fc6b 21bd 4c9a e9bc
000000f0: fa7f acbc 73ed 743d 0b79 99be 72a1 6d3d
00000100: 8198 cd3b 6006 4b3c cde5 f1bd da04 263d
00000110: 182b 6dbd 3f35 5d3d 78e0 18be b927 77bc
00000120: bcf9 253e bd71 a93e c28c 8f3e f9ba 0e3e
00000130: 5f14 de3c 03a8 a63f a0c7 52bc 40e5 393f
00000140: 69d9 f3be bfaa 43bf fcf1 75bf 2634 fabe
00000150: 25da c3be 3c1e 973d 9085 3cbe 2152 b63c
00000160: 4c74 7dbb 4ce3 83be de39 49bf 9b2c 2dbf
00000170: c63b 0bbf 31ab 6e3e 0abb c2bd 849b 1d3e
00000180: 7917 8dbe 55e3 093e cefb b2bc d542 debe
-0.44805875 0.080105014 -0.029746592 0.009931897 -0.27970386 0.026869863 0.13767762 -0.12272624
-0.20188001 -0.036205653 -0.36182064 -0.29577595 -0.008027163 0.026256481 -0.118360326 -0.06309602
-0.13321817 -0.115582004 -0.23612419 0.04150517 -0.5343114 -0.6295853 -0.47339812 -0.015354448
-0.21523315 0.0483526 -0.2611032 -0.48760343 -0.023062034 -0.18925178 -0.6193647 -0.89194727
-0.53218544 0.027772056 -0.34574178 0.10875648 -0.021061804 0.07719816 -0.041543774 -0.036200646
-0.14279833 -0.6668239 -0.32420745 -0.39831176 -0.13758382 0.111650854 -0.21749914 -0.14321688
-0.007488086 -0.49687782 -0.07078795 0.1634995 -0.062664025 0.0076291165 -0.031630084 0.029307127
-0.2768945 -0.073650435 -0.039409623 -0.028515957 -0.021057118 0.05979676 -0.2997516 0.058015294
0.0062742834 0.012391657 -0.11811409 0.04053197 -0.057902426 0.054005858 -0.14929378 -0.015085154
0.16208547 0.33094588 0.28037077 0.13938512 0.027109323 1.3020023 -0.012864977 0.7261543
-0.47626808 -0.7643241 -0.96072364 -0.4886791 -0.3825237 0.073788136 -0.18410325 0.022255959
-0.0038674055 -0.2575935 -0.78603923 -0.6764619 -0.5438808 0.23307492 -0.09508331 0.15391356
-0.2755697 0.13465627 -0.021848585 -0.43410364

fc.bias f4 [10]
00000000: c8c9 7fbe 4b34 98be fe75 97be f33c 14bf
00000010: d29d 8bbe 83ba 42be 8daf dabe 5208 c540
00000020: 6c97 dbbe 4e9f f1be
-0.24979317 -0.29727396 -0.29582208 -0.579055 -0.27268845 -0.19016461 -0.4271206 6.1572657
-0.42888963 -0.47191852
